best_model.pt (torch, 47225 bytes, 5 tensors)

net.0.weight f4 [128, 20]
000000 32 8a e8 bf 6e 60 77 bf a6 7d f0 be 15 ef 17 40
       -1.8167174 -0.96631515 -0.46970862 2.3739674
000010 90 d4 66 bf 41 da 1c bd c6 e8 bd bf e0 bf 16 3f
       -0.90168095 -0.03829408 -1.4836662 0.5888653
000020 8e 89 22 3e 58 e5 1f 3f f6 b1 05 3e ba 44 03 3f
       0.15872785 0.62459326 0.13056168 0.51276743
000030 df ad 64 bf de f4 90 3f 92 cd 84 3f 51 2a c7 3e
       -0.89327806 1.1324728 1.0375235 0.38899472
000040 ea eb 29 3f f4 d9 5c be 66 64 21 40 fd 2a 4d bd
       0.663756 -0.21567518 2.5217528 -0.050089825
000050 35 c0 e8 3e 71 33 13 3f 22 25 21 3e a6 5d 6d 3b
       0.45459142 0.5750037 0.15736821 0.003621915
000060 5b cd d4 bf ea bb ad bf ee 75 d3 bf 31 4b d2 3f
       -1.662517 -1.3572972 -1.6520364 1.6429197
000070 23 6e b8 bf 82 f3 86 bf e5 24 93 be ae b5 bb be
       -1.4408611 -1.0543063 -0.28739086 -0.36662048
000080 19 5f 7c bc 35 a6 21 3f 15 7c 33 3b 78 3d 29 be
       -0.015403532 0.63144237 0.002738719 -0.16527355
000090 bc 45 f6 bf 94 a3 6b bf bd 3e 6f bf 0e c4 58 3e
       -1.9240031 -0.92046475 -0.93455106 0.21168539
0000a0 b4 9c 03 bf 30 40 a1 3e 10 da 0c be 16 ff f4 3f
       -0.51410985 0.31494284 -0.13755059 1.9140346
0000b0 63 0b dd bf 61 e7 8e 3e 43 00 e8 bf 9b 00 a8 3f
       -1.72691 0.27910903 -1.812508 1.3125185
0000c0 d7 9a 08 bf 40 2b aa bf 77 56 f2 bd 8b 35 8c 3c
       -0.53361267 -1.3294449 -0.11832898 0.017115375
0000d0 66 63 cc bc d2 85 47 3f e1 6f 39 be 19 05 bd be
       -0.02494974 0.7793857 -0.18109085 -0.36917952
0000e0 16 13 06 c0 07 70 3f bf f6 c8 0f bf 65 40 fc 3d
       -2.094915 -0.74780315 -0.5616602 0.1231697
0000f0 57 75 ea 3f 5f 71 08 3f 8c 86 1b be 2b c3 fc 3f
       1.8317059 0.5329799 -0.15188044 1.974706
000100 38 db ea bd b8 3b 2a 3e e0 a1 06 be 53 b7 29 be
       -0.11467594 0.16624343 -0.13147688 -0.16573839
000110 8b f0 d3 bd e9 d7 4f bf 32 86 9b bd 7a a1 18 bd
       -0.10348614 -0.8118883 -0.07593955 -0.03726337
000120 ac 9b 32 3f 51 ad f8 bf b3 68 d2 bf d6 82 44 be
       0.69768786 -1.9427892 -1.6438202 -0.19190535
000130 88 0a 8b be 7f 79 7b be 15 1b 40 bf 5c 09 35 be
       -0.27156472 -0.24558066 -0.75041324 -0.17679352
000140 5d da 67 be 5b b0 b8 3a b9 b9 2b 3e 3d df a7 3d
       -0.22641893 0.0014090644 0.16770066 0.08196876
000150 85 db b3 bf 8b 8f 47 3e 84 37 89 bf 61 48 e3 3e
       -1.4051367 0.19488351 -1.0720067 0.44391158
000160 a2 b3 99 3d 96 ad 83 3f 09 9b 29 be b1 09 94 3d
       0.07504965 1.0287349 -0.16563047 0.07228411
000170 17 8b 08 3e 41 1a 09 bf 02 f2 6b be 09 f4 5d 3e
       0.13334309 -0.53555685 -0.23041537 0.21675123
000180 20 0a cf 3f fc df 31 3f f8 17 15 40 15 fa 58 3e
       1.6174965 0.694824 2.329588 0.21189149
000190 56 11 c5 be a3 44 59 bf 8b e9 d0 be 03 d5 87 3c
       -0.3848979 -0.84870356 -0.4080318 0.016581064
0001a0 fe 9b f2 3d 7a b7 10 3e e5 18 7a 3d d5 0a 5e be
       0.118461594 0.14132491 0.061058898 -0.2168382
0001b0 85 aa ef 3d c1 c4 09 3f cb 34 e8 be bf 1d 90 be
       0.11702446 0.5381585 -0.45352778 -0.28147694
0001c0 ff 82 40 bf a6 e2 68 3f d5 63 14 3f 90 39 10 3f
       -0.75199884 0.9097084 0.5796483 0.56337833
0001d0 ee 09 8c 3f 3f 41 69 be c2 04 0e 40 9f 42 41 3e
       1.094053 -0.22778796 2.2190404 0.1887307
0001e0 aa 5e c1 bd bc 21 8a be d1 c0 de 3d 2b e6 b8 3e
       -0.09441884 -0.26978862 0.108766206 0.36113104
0001f0 c5 ea 0e bb 55 4a 3b bd 65 cd 4c 3c 1d 4c 55 be
       -0.0021807414 -0.045725185 0.012500142 -0.20829816
000200 cf 18 05 3e 51 c9 59 3f 0a bd a9 3c 4d bd 99 3d
       0.12997745 0.8507281 0.020720024 0.075068094
000210 17 8c 32 3d 01 aa 50 bf 86 cf eb bd 56 64 7a 3e
       0.04359063 -0.81509405 -0.11514191 0.24452338
000220 91 c3 d6 3f 45 9f e0 3e 18 58 18 40 d3 98 1a bf
       1.6778432 0.43871513 2.3803768 -0.6038944
000230 d8 f9 b2 be 6d f4 a3 be ac 7b 0d 3e b9 9d 4b 3c
       -0.3495624 -0.3202242 0.13816708 0.012427741
000240 61 71 03 3e 2c 56 48 3e e6 8c 33 3e 6c 18 f3 bd
       0.1283622 0.19564122 0.17534217 -0.118698925
000250 31 11 4e be 82 62 50 3f 71 1a 7d be a3 62 68 3e
       -0.20123746 0.8140031 -0.24717118 0.22693877
000260 71 30 61 3e 38 61 2c bf 54 f0 30 b9 2b e1 87 3d
       0.21991135 -0.67335844 -0.00016874197 0.06634744
000270 8b 8c 9a 3f 37 dd a4 3e 16 74 1e 40 c2 bc 08 bf
       1.207414 0.32200024 2.4758353 -0.5341302
000280 62 61 99 3e fd 5c 0b 3e 49 be 11 3f 16 4c a3 3d
       0.2995711 0.13609691 0.5693098 0.079734966
000290 43 f1 54 3e a1 14 84 bf e0 03 a7 3d f5 f5 c6 bd
       0.20795159 -1.0318795 0.08155036 -0.09714881
0002a0 18 96 76 bf 60 1b a3 3f 1b 73 f3 bd 73 7c 91 3e
       -0.96322775 1.2742729 -0.11887189 0.2841526
0002b0 ab 5c 06 3e c2 99 09 bf de 87 ad 3d 3b e5 59 3e
       0.13121288 -0.5375024 0.0847318 0.2127885
0002c0 b8 82 ea 3f 02 48 6a 3f 11 74 10 40 8c b7 7a 3e
       1.8321142 0.91516125 2.2570841 0.2448408
0002d0 b3 f9 8d bf 09 28 c1 3f 8c ef d5 3e 52 c7 3d 40
       -1.1091827 1.5090343 0.41784322 2.9652905
0002e0 48 03 ce bf b8 39 83 3e 1c 41 a2 bf e5 ad b7 3f
       -1.6094751 0.25629973 -1.267612 1.4349943
0002f0 1b c9 27 bf e6 4b 4b bf 00 eb cb bb 1f a4 bd 3d
       -0.6554124 -0.79412687 -0.0062230825 0.09259819
000300 25 e7 93 3f cf 6e fb bf ed ef 80 bf 1a 0d 50 bf
       1.1554915 -1.9643191 -1.007322 -0.8126999
000310 09 b8 76 bf 19 e3 85 bd 38 bd f6 be 3a 57 6b 3f
       -0.96374565 -0.06537456 -0.48191237 0.9192997
000320 ba df 44 bf ea da e3 3d 4b ea aa be ea 06 74 3f
       -0.7690388 0.11125739 -0.33381876 0.9532305
000330 37 f3 1e 3e 9a 7a 52 3e c4 81 66 3e 4e ac 4c be
       0.15522467 0.20554581 0.22510439 -0.19987604
000340 48 4d 11 bd de 45 c0 bf f6 33 cc bc b7 5e e2 be
       -0.03547409 -1.5021322 -0.02492712 -0.44212887
000350 2e a7 bd bc cf c5 05 3f 3d 01 54 be c9 e4 f1 bd
       -0.023151007 0.52254957 -0.20703597 -0.118112154
000360 0a ab 07 c0 1c 5f a3 bf 6a 65 45 bf 91 f8 2b bf
       -2.1198144 -1.27634 -0.7710787 -0.6717616
000370 ab f4 c8 3f 51 c8 cd 3f b5 d5 c0 3e 0b 3c 06 40
       1.5699667 1.6076757 0.37663046 2.0974147
000380 f6 3f 07 3e 5a 9c d4 bf aa 14 9d bd 31 44 38 3e
       0.13207993 -1.6610215 -0.07669957 0.17994763
000390 66 51 ce bf 5a 55 9c bf 8f ec ac 3e d2 b5 cb be
       -1.6118591 -1.2213547 0.3377423 -0.39787155
0003a0 e4 79 82 3f 94 f5 aa bf d9 1e 27 bf 6b c8 20 bf
       1.0193448 -1.3356194 -0.65281445 -0.62805814
0003b0 a7 cd 33 bf a8 b8 f9 3d 9f b8 f5 be 60 0f 40 3f
       -0.70235676 0.121934235 -0.47992417 0.7502346
0003c0 9e 4b 08 bf 09 5b fe 3e 45 8c ff bd d3 ea c6 3f
       -0.5324038 0.4967883 -0.12477926 1.5540413
0003d0 a0 89 ba bf 55 f0 23 3e d2 02 8f bf fb 8a 3b 3f
       -1.457325 0.16009648 -1.1172736 0.7325894
0003e0 2e 06 ac 3d 7b d6 79 bf 6d 6d b3 3d f0 46 f4 bd
       0.08399616 -0.97592896 0.08761106 -0.11927593
0003f0 8c 57 07 3f 1e 7c c8 bf 1a 7d 8c bf 04 dc 39 bf
       0.5286796 -1.5662878 -1.0975678 -0.7260134

net.0.bias f4 [128]
000000 97 f6 9c 3f 28 dd d7 3f eb 40 df 3f 69 42 e1 3f
       1.2262753 1.6864367 1.7441686 1.7598392
000010 43 55 9d 3f c2 e7 b9 3f 06 71 9d 3f 05 a7 92 3f
       1.2291645 1.4523852 1.2300117 1.145722
000020 d9 61 8e 3f 7e 91 d1 3f 09 7d ce 3f c3 c2 a1 3f
       1.1123611 1.6372526 1.6131908 1.2637562
000030 47 ae c0 3f 26 07 b6 3f b8 87 74 3f 72 42 b6 3f
       1.5053185 1.4220932 0.9551959 1.4239028
000040 f9 85 84 3f f2 5e e0 3f 8f 78 90 3f 7c a2 f2 3f
       1.0353385 1.7528975 1.1286792 1.8955836
000050 7c 74 c7 3f 2e 49 d2 3f 47 c8 e8 3f 83 de 6a 3f
       1.5582423 1.6428583 1.818612 0.91745776
000060 33 be e6 3f 3e f7 4e 3f 27 57 8a 3f 90 8d 7e 3f
       1.8026794 0.8084601 1.0807847 0.9943476
000070 43 21 ad 3f a6 16 79 3f 2a b1 f3 3f 11 3d cf 3f
       1.3525776 0.97300184 1.9038441 1.6190511
000080 02 41 35 3f f2 72 cf 3f 5e dc e9 3f 8a fb aa 3f
       0.7080232 1.6206954 1.8270376 1.3358014
000090 c2 e3 bc 3f 90 04 90 3f a3 59 9f 3f 29 3d 8f 3f
       1.4757006 1.1251392 1.244923 1.119054
0000a0 78 49 a3 3f 74 2c b5 3f 32 03 f7 3f 93 0b 9e 3f
       1.2756796 1.4154191 1.929785 1.2347282
0000b0 0e be 48 3f 0b 22 81 3f 97 88 92 3f c7 1c c7 3f
       0.78415 1.0088514 1.1447934 1.5555657
0000c0 01 9c ac 3f 75 bd b3 3f 93 27 01 40 70 5a 55 3f
       1.3485109 1.4042193 2.0180404 0.8334112
0000d0 4d d8 a2 3f 42 b4 a5 3f 3d e9 be 3f 47 3b 4b 3f
       1.272226 1.2945635 1.4914929 0.79387325
0000e0 35 6c 73 3f 4c f6 cd 3f a1 9c bd 3f bb 90 c6 3f
       0.95086986 1.6090789 1.4813424 1.5512918
0000f0 02 b5 e4 3f 74 76 93 3f b1 51 59 3f 33 e8 78 3f
       1.7867739 1.1520524 0.84890276 0.9722931
000100 a6 a8 a4 3f ca 3a aa 3f 8b 25 aa 3f 2f 3b b2 3f
       1.2863967 1.3299191 1.3292707 1.3924311
000110 51 5d 93 3f d9 70 dd 3f e3 3c d6 3f e7 cc 97 3f
       1.1512853 1.7300063 1.6737331 1.1859406
000120 71 a3 a5 3f 5d 70 a0 3f 94 a7 93 3f 1c 75 b1 3f
       1.2940503 1.253429 1.1535516 1.3863864
000130 d8 49 04 40 f5 29 ca 3f bf e7 be 3f 3f a0 a6 3f
       2.067007 1.5794054 1.4914473 1.3017653
000140 ef 75 74 3f f1 f1 e4 3f 76 45 a9 3f fe c3 4e 3f
       0.9549245 1.7886335 1.3224323 0.8076781
000150 f1 4a bb 3f 69 59 c7 3f c3 8f 73 3f b8 74 de 3f
       1.4632245 1.5574161 0.9514124 1.737937
000160 92 25 be 3f de b4 a4 3f 10 b9 a5 3f 3e 98 af 3f
       1.4855216 1.2867696 1.2947102 1.3718336
000170 2b ec e5 3f e1 7b 82 3f 31 ec d6 3f 92 38 da 3f
       1.7962698 1.0194055 1.679083 1.7048514
000180 f6 69 ef 3f c8 2d fe 3f 72 f4 8a 3f 53 1f ea 3f
       1.8704212 1.9857721 1.0855849 1.8290809
000190 1b 7d a0 3f 48 6c c7 3f 44 2e be 3f 3d 3c ab 3f
       1.2538179 1.557992 1.4857869 1.3377758
0001a0 4b b5 77 3f 23 08 f0 3f a5 f4 cc 3f 45 b3 81 3f
       0.96761006 1.8752483 1.601216 1.0132834
0001b0 d5 6a 85 3f 33 d6 bc 3f a7 2a d3 3f aa 85 9c 3f
       1.0423228 1.4752868 1.6497391 1.2228291
0001c0 96 ce ad 3f 05 4b 8f 3f 3c 81 ad 3f 6b 96 d7 3f
       1.357867 1.1194769 1.3555064 1.6842779
0001d0 1b 9d 97 3f d4 09 bd 3f cc 2d 6e 3f 4e 2c 90 3f
       1.184482 1.4768624 0.9303863 1.1263521
0001e0 ba e2 3c 3f 5c 91 58 3f 09 8b d1 3f 07 72 c4 3f
       0.7378346 0.845968 1.6370555 1.5347298
0001f0 fa c4 82 3f 5e 5b c1 3f 7b b4 e1 3f 47 e9 01 40
       1.0216362 1.5106008 1.7633203 2.029863

net.2.weight f4 [64, 128]
000000 02 20 45 bc f7 1c f6 bc 6f 0c 26 bd d5 ed 0a bb
       -0.012031557 -0.030043108 -0.0405392 -0.0021198888
000010 4c 3b 9e bd 9a 08 08 3c 6c 01 a2 bd d5 60 c2 bd
       -0.07726154 0.008302832 -0.079104275 -0.094911255
000020 71 64 a2 bc b3 b5 b5 bd 27 91 04 3d ff 97 3a 3d
       -0.019823285 -0.08872547 0.03236499 0.04555511
000030 6f c8 98 3d eb 7f 8d bd ec 0e 89 3c 46 f4 8d 3d
       0.07460105 -0.06909164 0.016730748 0.06931357
000040 a3 6a 9c bd 40 17 43 3d 6b 12 9c bd d8 41 cc bd
       -0.07637527 0.047629595 -0.076207004 -0.09973496
000050 54 96 74 bd 73 3d a8 bd d4 a8 45 3d 94 ee 70 bd
       -0.059713677 -0.082148455 0.04825671 -0.058821276
000060 de cf ad bd 3d 3d 8a bd d2 3b b7 bd 18 b1 e5 bd
       -0.08486913 -0.067499615 -0.08946957 -0.112154186
000070 d3 c1 2b bd 93 b2 80 3d 6e c4 b8 bd d5 44 93 bd
       -0.041932892 0.0628406 -0.09021841 -0.07190863
000080 a6 55 9f bd 4d 14 ba bd 52 b4 b8 3c 57 46 7a bd
       -0.07780008 -0.09085903 0.02254692 -0.061102238
000090 b9 1a 41 bd 5e 31 00 3d 01 13 5c bd 33 48 68 bd
       -0.047144625 0.03129708 -0.05372906 -0.05670948
0000a0 73 86 a1 3c 6c 65 19 bc 96 d6 4b 3c 65 a3 b9 bd
       0.01971743 -0.00936256 0.012441298 -0.09064368
0000b0 88 ee 88 bd f9 41 a8 bd a8 eb c9 bc 8d 89 9d bc
       -0.06686121 -0.08215708 -0.024648502 -0.019230628
0000c0 95 1b 3d b9 2e d3 32 3d 4f e2 d1 3b f1 31 12 3d
       -0.0001803472 0.043658428 0.006405152 0.03569216
0000d0 f6 a4 bf bd 3c a8 d9 bc a7 b9 89 3d b5 3c 37 3d
       -0.09357636 -0.026569478 0.067248635 0.04473563
0000e0 52 51 06 bd cb 47 a3 bd f7 b6 d1 bd 70 d7 23 bd
       -0.032792397 -0.07972678 -0.10239976 -0.04000038
0000f0 27 0b c7 bc f0 3c c5 bc 07 48 26 3c fb a8 78 3d
       -0.02429731 -0.024076909 0.010149009 0.060708027
000100 70 1c b6 ba 98 65 ab bc 32 23 bb bd 5a f0 8c 3d
       -0.0013893973 -0.020922467 -0.09137572 0.06881781
000110 b3 8b 87 bd fa 10 06 3d d3 a8 83 bd 0c 31 09 3c
       -0.066184424 0.032731034 -0.06428685 0.00837351
000120 55 5a 48 3d 62 e2 aa bb fa 2d 2a 3c 17 a7 ee bc
       0.048914272 -0.005214975 0.010386938 -0.029132409
000130 02 9f 36 bd 42 ed 2b bd b7 7d b5 bd 5f a6 85 3d
       -0.044585235 -0.041974314 -0.08861869 0.065258734
000140 3b bb 2e 3d d3 48 06 3d 7d d5 3a bd 99 6d 72 3d
       0.042659026 0.032784294 -0.045613755 0.05918655
000150 80 88 bd bd 34 a2 27 bd a7 55 58 3d d9 b4 03 bd
       -0.09254551 -0.040926173 0.05281606 -0.03215489
000160 b3 77 6b bd 51 82 53 3b 0f 47 2d 3d 8a 64 a5 3c
       -0.0574872 0.003227372 0.042304095 0.020189542
000170 7c e3 e8 3c fd b4 53 bd 97 4d 7e bc cc 1f a3 bd
       0.028428786 -0.051686276 -0.015521429 -0.07965049
000180 b2 6d 20 3d 95 9a 8c 3d 67 e5 a7 3c 80 36 83 3d
       0.039167114 0.06865422 0.02049513 0.064068794
000190 ac 56 98 3d 29 38 4f bd 3f 81 3e 3c ba 9a 0d 3d
       0.07438406 -0.050590668 0.011627494 0.034571387
0001a0 8a e6 68 bc 99 e9 66 bc 44 aa 5b 3d 9b 27 7e bc
       -0.014215121 -0.01409378 0.053629175 -0.015512372
0001b0 2d b0 b4 bd 6f b3 5d bb fb 04 b5 bb 7e f1 8b 3d
       -0.08822665 -0.0033828875 -0.0055242754 0.0683317
0001c0 15 6c 32 3c 89 82 c1 bb dd e8 da 3c 6b f8 da bd
       0.010890027 -0.0059054536 0.026722366 -0.10691913
0001d0 77 03 3c 3d d5 fa a6 3c a7 54 7d 3d 63 84 92 3c
       0.04590174 0.020383278 0.06184831 0.017885393
0001e0 51 f4 34 3d 29 1e 95 bc 26 dc e3 bc 85 a1 9a bd
       0.04417831 -0.018202858 -0.027814936 -0.07550339
0001f0 40 65 d7 bc 7f 03 8d bd e9 e5 9f bd 0c d0 89 3d
       -0.026293397 -0.068854325 -0.07807524 0.06729135
000200 55 1f cb 3f da 83 71 3f ff 45 6d 3f 7c 47 b0 3f
       1.5868937 0.94341815 0.9268493 1.3771815
000210 07 c3 89 3f 33 15 97 3f 35 3a 7a 3f a9 a4 98 3f
       1.0762643 1.1803344 0.97745067 1.192525
000220 16 d0 91 3f f6 d7 ad 3f dc 15 8d 3f 45 4d b2 3f
       1.1391628 1.3581531 1.1022296 1.3929831
000230 59 e5 6b 3f 41 17 8a 3f 56 97 6c 3f 9b b5 89 3f
       0.9214683 1.0788347 0.9241842 1.0758547
000240 73 ee bb 3f 36 1d 94 3f d1 1e 71 3f e7 c7 9c 3f
       1.4682144 1.1571414 0.9418765 1.2248505
000250 1f 0a 7e 3f 47 82 88 3f 0e 97 bc 3f 7c 8c 77 3f
       0.99234194 1.0664757 1.4733598 0.9669874
000260 ae 71 43 3f d3 5e 89 3f 25 5b 87 3f 15 57 70 3f
       0.76345336 1.0732063 1.057469 0.93882877
000270 6f 83 8d 3f e6 1e 75 3f 3c df 8d 3f de 84 ae 3f
       1.1055735 0.9575027 1.1083751 1.3634298
000280 6f 19 8a 3f df 98 72 3f a0 8a 6c 3f e7 63 64 3f
       1.0789012 0.9476451 0.92399025 0.8921494
000290 70 72 81 3f 65 df 75 3f 43 6b 77 3f 16 22 9a 3f
       1.0113049 0.96044 0.96648043 1.2041652
0002a0 87 2c 96 3f e3 34 60 3f c0 42 80 3f 9d 65 9d 3f
       1.1732339 0.875807 1.002037 1.2296635
0002b0 aa d1 77 3f 3b f3 90 3f ca 2e ad 3f 2f f0 d8 3f
       0.96804297 1.1324228 1.3529904 1.6948298
0002c0 cc c6 5e 3f 4f a7 7e 3f f9 40 7a 3f 1e 6a 85 3f
       0.8702209 0.9947404 0.9775539 1.0423009
0002d0 16 78 3e 3f 5e 86 56 3f 1d 60 9d 3f 0c 20 58 3f
       0.74401987 0.8379878 1.2294956 0.844239
0002e0 e3 cb 5d 3f 74 c9 78 3f 4f 5f 6a 3f fc 6d 69 3f
       0.8663923 0.97182393 0.9155168 0.9118345
0002f0 10 41 99 3f 04 88 7c 3f 5f 8c 79 3f 82 f6 81 3f
       1.197298 0.98645043 0.97479814 1.0153353
000300 d4 ca a7 3f c4 f7 7d 3f 04 30 4d 3f 42 02 8c 3f
       1.3108773 0.99206185 0.8015139 1.0938189
000310 c6 bf 46 3f 74 0c 7d 3f 8f 38 69 3f 68 43 53 3f
       0.77636373 0.98847127 0.91101927 0.8252473
000320 aa 26 6a 3f 42 85 55 3f c5 0b 80 3f 98 00 88 3f
       0.91465247 0.8340646 1.0003592 1.0625181
000330 eb 4b 64 3f 76 66 93 3f 2b c3 65 3f 41 8f 76 3f
       0.8917834 1.1515644 0.8975093 0.9631234
000340 13 f6 79 3f e0 6b 83 3f 84 93 70 3f e5 1d 77 3f
       0.97641104 1.0267296 0.9397509 0.9652999
000350 29 e0 8c 3f c8 84 77 3f a5 68 6b 3f 19 fa 71 3f
       1.1005908 0.96686983 0.9195655 0.94522244
000360 90 ed c1 3f e3 f8 9b 3f 7a 37 51 3f d8 1a 8f 3f
       1.5150623 1.2185329 0.81725276 1.1180067
000370 dc ce 89 3f 81 dd 87 3f f9 9d 88 3f 2f b0 87 3f
       1.0766253 1.0614473 1.067321 1.0600642
000380 ba 42 88 3f fc f1 64 3f 26 b5 7a 3f 78 3c 8e 3f
       1.0645363 0.8943174 0.9793266 1.1112204
000390 d8 57 6c 3f 54 53 76 3f 9c fe 4d 3f ad 2f 89 3f
       0.9232154 0.962209 0.8046663 1.0717674
0003a0 79 07 86 3f 33 7e c8 3f f6 b0 3e 3f c2 37 5d 3f
       1.047103 1.5663513 0.7448877 0.86413205
0003b0 0f 49 6a 3f a9 8e 93 3f e6 61 83 3f 10 f6 9e 3f
       0.9151773 1.1527911 1.0264251 1.2418842
0003c0 65 a6 82 3f d8 44 67 3f bf 6e 8e 3f 8f f6 81 3f
       1.020703 0.9033942 1.1127547 1.0153369
0003d0 9b ba a8 3f 7f ec 84 3f 28 de 88 3f 94 74 78 3f
       1.3181947 1.0384673 1.0692797 0.97052884
0003e0 20 b9 90 3f d6 b1 a7 3f 91 53 99 3f c2 4e 82 3f
       1.1306496 1.3101146 1.1978627 1.0180285
0003f0 70 4e 69 3f 86 75 57 3f 83 af 5d 3f c3 02 88 3f
       0.9113531 0.841637 0.86595935 1.0625843

net.2.bias f4 [64]
000000 43 35 b3 bd 6a 47 8a 3f a9 f1 e9 3c 02 7f 9a 3f
       -0.08750393 1.0803044 0.028557615 1.207001
000010 6a a9 46 3d d4 2c 69 3f 68 fd 8e bd b7 a8 af bd
       0.04850141 0.9108403 -0.06981927 -0.08577102
000020 e3 13 77 3f 62 09 da bd 94 fb e1 bd 49 49 10 bd
       0.9651472 -0.10646321 -0.11034313 -0.03522614
000030 4f 20 83 3f ef 01 c9 bd b2 70 1e 3d b1 b8 40 3d
       1.0244235 -0.09814822 0.038681693 0.047051135
000040 4f 42 a0 bd 88 b2 8a 3f a2 c3 8d 3f 3e b9 86 3f
       -0.07825147 1.0835733 1.1075327 1.0525281
000050 23 62 51 bd 5c a8 6c 3f 5a 6e 68 3f cf 0b 85 3f
       -0.05111898 0.92444396 0.90793383 1.0394229
000060 23 a2 c4 bd b1 b0 75 3f 03 d0 70 3f fa b7 5e 3c
       -0.096012376 0.95972735 0.940674 0.013593668
000070 9b 2b b5 3c b4 dc 90 3f f0 b2 69 3f b6 85 77 3f
       0.02211552 1.1317353 0.9128866 0.966884
000080 1c 6e 8b 3f ea 5f 73 3f b4 13 85 3f 49 cd 7b 3f
       1.0892978 0.9506823 1.0396638 0.98360115
000090 db 24 87 3f b0 c9 78 3f a0 18 81 3f 9c 53 9a 3f
       1.0558122 0.9718275 1.008564 1.2056766
0000a0 38 32 73 3f e0 76 84 3f f3 a0 79 3f d0 bc 68 3f
       0.949985 1.0348778 0.97511214 0.90913105
0000b0 55 d3 78 3f da 32 ec bd 83 73 7c 3f 64 52 a5 bd
       0.9719747 -0.11533137 0.98613757 -0.080723554
0000c0 26 9e 8c 3f c6 e2 63 3f 83 fb 7c 3f f1 50 55 3d
       1.0985763 0.89017904 0.98821276 0.052079145
0000d0 8b d6 7d 3f f1 7e 13 3d 0b 93 86 3f 2e 15 87 3f
       0.9915549 0.036009733 1.0513624 1.0553339
0000e0 ac 1d 7e 3f d7 67 6b 3d fb 10 36 3d 9d b4 76 3f
       0.99264026 0.057472076 0.044449788 0.96369344
0000f0 28 dd da 3b 0b f9 93 3f 22 7e 76 3f 0d 23 a1 3f
       0.006679196 1.1560377 0.96286213 1.2588822

net.4.weight f4 [1, 64]
000000 9b 5d 8e bc 7f 02 96 3f 34 68 97 bd c8 6a 69 c0
       -0.017378619 1.1719512 -0.07392922 -3.6471424
000010 d8 1b 92 bc e7 58 9e 3f 22 d0 dc bd d5 17 81 bd
       -0.017835543 1.2370881 -0.10781886 -0.06303374
000020 87 5d 95 3f b7 b0 95 bd 75 58 0e 3e 73 bd 9c bd
       1.1669167 -0.07309096 0.13900931 -0.07653322
000030 c5 83 94 3f c7 ab 95 bc e3 51 8a bd f9 c5 69 bd
       1.1602713 -0.018270386 -0.067539 -0.057073567
000040 ba 8f dd bc 58 fe 93 3f 0c b9 97 3f d4 1a 90 3f
       -0.027046073 1.1561995 1.1853347 1.1258187
000050 14 f5 91 bd fd e2 9d 3f 57 84 9e 3f e3 af 96 3f
       -0.07126823 1.2334896 1.2384137 1.1772426
000060 7a db a9 bd 5d f4 9b 3f d7 48 98 3f 54 79 81 bd
       -0.08293815 1.2183949 1.1897229 -0.0632197
000070 89 13 81 bd 56 4d 94 3f fd 31 9f 3f e4 1a 9e 3f
       -0.06302554 1.1586101 1.243713 1.2351956
000080 5a 35 94 3f c4 5a 97 3f 7d b1 93 3f bd 47 a0 3f
       1.1578782 1.1824574 1.153854 1.2521893
000090 73 4e 90 3f 05 b0 93 3f 4c 24 99 3f fe 0b 02 3f
       1.1273941 1.1538092 1.1964202 0.5079955
0000a0 0e ac 9e 3f 3d 91 9f 3f 73 7d 98 3f b8 7a 9f 3f
       1.2396257 1.2466198 1.1913284 1.2459326
0000b0 b7 d9 98 3f f2 4d 9e bd 8b 98 9d 3f 41 a0 36 bd
       1.1941441 -0.07729711 1.2312177 -0.044586424
0000c0 c0 69 8f 3f b0 53 a0 3f d8 74 97 3f 1b e9 c5 bc
       1.1204147 1.2525539 1.1832533 -0.024159005
0000d0 11 9e 96 3f 1e 1c 94 bc 5e 2e 90 3f 5e bb 94 3f
       1.1766988 -0.018079814 1.126415 1.161968
0000e0 2f 4e 9c 3f e9 f2 8e bc 2e 47 00 be ae 0f 9d 3f
       1.221136 -0.017449813 -0.12527153 1.227041
0000f0 62 15 9e bd 0c a1 90 3f af 4d 94 bf c4 d0 55 c0
       -0.07718922 1.1299148 -1.1586207 -3.340867
